logs/MLP/version_0/checkpoints/epoch=19-step=1600.ckpt (torch, 28336 bytes, 12 tensors)

nn.0.weight f4 [64, 21]
000000 db 56 00 be af 57 6d bc 38 90 b3 3d 53 ca ec bd
       -0.12533133 -0.014486237 0.08767742 -0.11562028
000010 a5 f9 89 bd 36 da 13 bd 75 98 17 3e 71 dd c0 bc
       -0.06737069 -0.036096774 0.14804251 -0.023543091
000020 d0 cc ab bd 7a 43 f5 3d 6f d4 13 3d d0 95 a9 3d
       -0.08388674 0.11975761 0.036091264 0.082805276
000030 ac 93 e0 bd 8c 96 cf bd 80 30 c9 3d 89 f2 c9 3d
       -0.10965666 -0.101361364 0.09823704 0.09860713
000040 96 ed 36 3d 7a b5 22 3d bd af ba bc f9 86 4e be
       0.044660173 0.03972385 -0.022788877 -0.20168675
000050 2e ea 18 3c 25 0b 9b bd 67 62 15 3f 00 fe 88 3e
       0.009333177 -0.07570485 0.58353275 0.26756287
000060 8e 27 ce 3e 3b bc e2 bc d7 12 f6 3e 15 b9 81 3e
       0.40264553 -0.027677646 0.4806125 0.2533652
000070 d5 dd c0 3e 3a 35 31 3e 16 d1 29 bd 0c fb 8a 3f
       0.37669244 0.1730546 -0.041459166 1.0857863
000080 9e 4f 81 3f 36 a8 ad 3f c3 c3 7e 3f 51 cf 0e 3e
       1.0102422 1.3566959 0.9951746 0.13946272
000090 56 99 44 3e 43 14 3c bd 71 78 86 be 69 7d 99 3d
       0.19199118 -0.04591776 -0.26263765 0.07494623
0000a0 6e b5 32 be e1 07 75 bd 7b 07 51 be f5 8f 04 3e
       -0.17452022 -0.059821967 -0.2041301 0.1294554
0000b0 0b 0f 8b 3d fd 54 0b be 4a d1 86 3c 2a 2f 43 3e
       0.067899786 -0.13606639 0.016457219 0.1906096
0000c0 a2 44 fc bd 4b 9d 19 be 5e 2f 2c be 53 a7 f2 bc
       -0.12317778 -0.15001409 -0.16814944 -0.029620802
0000d0 d7 3f 47 3e 33 aa 32 3d 33 fc a7 bc df 44 0d bd
       0.19457947 0.043619346 -0.020506 -0.03448951
0000e0 f7 b7 72 bd e6 f0 c0 bd b7 a4 51 3e 67 60 ad bd
       -0.059257474 -0.09420948 0.2047299 -0.08465653
0000f0 31 a4 9e bd ce 3e 99 bd 1a 7c 43 3e 40 04 3d be
       -0.07746161 -0.07482682 0.1909031 -0.18458652
000100 e0 79 28 3e 25 1c 45 bd dd 99 10 be fc ca ad 3d
       0.16452742 -0.048122544 -0.14121194 0.08485982
000110 0f f0 05 3e 58 0c f5 bd 5f 86 95 3d 97 91 36 be
       0.13079856 -0.11965245 0.0730102 -0.17828976
000120 6e 4e 11 be 11 6d ab 3d 00 b2 1c 3e 11 60 6e be
       -0.14190075 0.08370412 0.15302277 -0.23278834
000130 fd 94 43 be 0b 2a 50 be 55 c6 80 bd 97 ce 94 bd
       -0.19099803 -0.20328538 -0.06287829 -0.072659664
000140 64 ef bb 3d 1f 30 96 3b fb 77 5c be c6 d3 85 bd
       0.091765195 0.004583373 -0.21530144 -0.06534533
000150 97 70 13 3d 62 14 9b be 95 7b 95 bd 0e 82 a8 be
       0.035996046 -0.30288988 -0.07298962 -0.32911724
000160 d9 57 9e 3d cd 91 28 3e f9 0d fa be 58 a0 7e be
       0.07731599 0.16461869 -0.48838785 -0.24865854
000170 d1 92 bc 3c e6 14 f8 bc d4 a1 0f bf eb 65 2a bf
       0.023019226 -0.030283403 -0.56106305 -0.66561764
000180 18 3d 32 bf a6 ce 98 be 11 97 cc bd b2 fd ba be
       -0.6962447 -0.2984516 -0.09989751 -0.3652168
000190 9f 53 b9 3d b6 84 6e bd 1b 6c e8 3d 97 0d c9 bd
       0.090491526 -0.05823203 0.113487445 -0.09817045
0001a0 4a 18 55 be e0 82 35 be f5 cd cc bd 1a 8c ba 3d
       -0.20810047 -0.17725706 -0.10000221 0.091087535
0001b0 22 18 4b 3d 40 cc 88 bd b7 22 9b bd 80 91 61 bd
       0.04958356 -0.066795826 -0.07574981 -0.0550704
0001c0 fe 00 17 be cc b2 4e 3e 16 69 46 be 59 1f cf bc
       -0.14746472 0.20185393 -0.19376025 -0.025283502
0001d0 d4 19 f5 3c 40 ea 7f 3a ff 3f 1c bc e5 4a 31 be
       0.029919542 0.0009762384 -0.009536742 -0.17313726
0001e0 f5 eb c1 bd c5 69 f8 bd 65 98 4b 3e bd 4d 88 bd
       -0.09468833 -0.12129549 0.19882353 -0.066554524
0001f0 77 6f 20 be d6 dc 1b be c9 6c 22 be ef 5b 22 bd
       -0.1566752 -0.15220961 -0.1586181 -0.039638456
000200 e0 69 bc bd 1e 2c 22 be c4 5f 9a bd b6 9c 32 3e
       -0.091998816 -0.15837142 -0.07537797 0.17442593
000210 d0 ab 46 be aa 68 8b bc 9b 02 51 3e c0 68 0e 3e
       -0.19401479 -0.017017681 0.2041115 0.13907146
000220 c0 a8 56 3d 63 30 bc 3d c4 5a 9c bd 20 26 2d be
       0.052407026 0.091889165 -0.076345 -0.16909075
000230 c5 5b 09 be 64 48 02 be 83 40 23 3e 73 2d f2 3a
       -0.13413914 -0.12722927 0.15942578 0.001847668
000240 e7 a9 35 be 77 ff 26 be f4 c0 76 bc d6 ed c9 3d
       -0.17740594 -0.1630839 -0.015060652 0.09859817
000250 e8 a5 43 3b f6 37 80 3c c3 c7 9b bd f5 74 1b bd
       0.0029853527 0.015651684 -0.07606461 -0.037953336
000260 65 d6 e4 3d 7a bb 50 3d c8 d2 bb bd 1c 46 48 3e
       0.11173705 0.05096004 -0.09171063 0.19557995
000270 be df 00 3e 9f 23 84 3d 00 ab b8 3d 71 bb 08 3e
       0.12585351 0.06452107 0.09016991 0.13352753
000280 c1 76 4e bd 95 f7 6f 3c 74 7a cc bd 1d 28 d4 bd
       -0.05040622 0.0146464305 -0.099842936 -0.103592135
000290 54 99 13 bd 42 11 36 be 28 33 27 3e ed 14 34 be
       -0.036034897 -0.17780021 0.16328108 -0.17586108
0002a0 9b d1 49 bf 15 36 c8 3e 94 ba 1d 3e 22 14 d1 bd
       -0.7883546 0.3910376 0.15403205 -0.10208918
0002b0 d9 b3 55 3d ef 52 ac 3d 68 54 28 3e 11 b0 d1 3e
       0.05217347 0.08414256 0.16438448 0.4095464
0002c0 09 7d 5c 3e 53 16 a8 3d 86 4b b2 3f be d5 b4 3f
       0.21532072 0.08207383 1.3929298 1.4127729
0002d0 ad 00 a3 3f cf 4d 68 3f 42 cd 1f 3e 81 ab 82 3e
       1.2734581 0.90743726 0.15605643 0.25521472
0002e0 26 c0 26 be 50 1c 05 3d 88 69 ac 3b 6e a9 11 be
       -0.16284236 0.032497704 0.0052616037 -0.14224789
0002f0 be 55 20 3e c0 e7 4b bf a5 4d 53 3e 97 34 1c bd
       0.15657708 -0.796505 0.20635088 -0.03813609
000300 bc db 1d be 97 c9 07 3e 3a ca 50 be b4 61 dd 3d
       -0.15415853 0.13260494 -0.20389643 0.10809651
000310 86 bf 90 3e 44 46 99 bc c2 13 47 bd 76 16 ac 3f
       0.2827112 -0.018710263 -0.048602827 1.3444355
000320 d5 28 ac 3f a4 12 ae 3f 2a 4d 5e 3f a4 0e 98 bd
       1.3449961 1.3599439 0.86836493 -0.074246675
000330 4f 57 41 3f 73 42 84 bd 7f 4e 8e be c3 06 a5 3d
       0.7552385 -0.06457987 -0.27794263 0.0805793
000340 79 b3 ec bd 7e b0 56 3e 43 55 00 be dd 22 40 3d
       -0.11557669 0.20965764 -0.12532525 0.04690825
000350 b6 69 19 be bf 3a 43 bc 56 a8 d4 bd 01 82 63 3d
       -0.14981732 -0.011915862 -0.1038367 0.055543903
000360 53 57 81 bd 9b f5 29 3d 5f 2b 13 be 3c 33 2d 3d
       -0.06315484 0.041493993 -0.14372014 0.04228519
000370 34 a5 f4 3d 6c 29 35 bd 48 80 ff bd c8 b9 d9 bc
       0.119455725 -0.044228956 -0.124756396 -0.026577845
000380 79 22 86 be 53 b2 9d bd 6d 50 f5 3d 7c bf 49 3d
       -0.26198176 -0.07700028 0.119782306 0.04925488
000390 a2 77 88 bd 10 2a 30 be 5e 3a 68 bc ee 93 f3 3d
       -0.06663443 -0.17203546 -0.014174072 0.1189345
0003a0 5f c2 2c 3d 25 68 85 bd 67 e8 9b bb 78 f2 4e bd
       0.042177554 -0.065140046 -0.004757929 -0.050524205
0003b0 cb 00 00 be 6e 93 68 be 0d d0 30 be d0 5b 26 be
       -0.12500302 -0.2271249 -0.17266865 -0.16245961
0003c0 a5 a2 45 be 99 ad 14 3e 82 92 84 be a4 25 73 bd
       -0.19300325 0.14519347 -0.25893027 -0.05936207
0003d0 36 74 67 bd 17 4b 34 be cf 55 ce bd 36 a1 a7 3b
       -0.05650731 -0.1760677 -0.100749604 0.0051156534
0003e0 8f 3a 68 be 93 e0 d5 ba 55 3f af bd c2 39 38 be
       -0.22678588 -0.0016317539 -0.085570015 -0.17990783
0003f0 a3 e0 2b be f1 db ad bc 0d 1d d1 bd e2 22 9a 3d
       -0.16784911 -0.02122304 -0.10210619 0.075261846

nn.0.bias f4 [64]
000000 c8 07 37 3e e6 c0 9f bd 73 f6 da bd 7f 86 2b 3e
       0.17874062 -0.07800464 -0.10691538 0.16750525
000010 10 31 cc bc 59 71 36 3e e3 03 b7 3d 4f 41 f4 bd
       -0.024925739 0.17816676 0.08936288 -0.11926519
000020 fc a2 0e 3d 04 7a da bc 31 15 db 3d 5b 53 06 bd
       0.034823403 -0.02666951 0.10697401 -0.032794338
000030 0d f6 11 bd a0 16 f0 bd 3d 34 d8 3d 33 bd 8a bd
       -0.035635043 -0.117230654 0.10556839 -0.06774368
000040 ba 9b da 3c fc 7e af 3e c5 b2 0e 3e 1d a9 e4 bc
       0.026685584 0.3427657 0.13935383 -0.02791267
000050 05 13 bb 3d aa f0 23 3e df 58 25 bd 86 c8 dd bd
       0.09134487 0.16009775 -0.040367957 -0.108292624
000060 5d d0 a5 bd 1d 93 2c 3e ce 6c 41 be 93 ec 7e 3e
       -0.08096383 0.16852994 -0.18889162 0.24894933
000070 89 37 08 be 56 7e 1b 3e 90 2d 1b be 13 1c 4c be
       -0.13302435 0.15184912 -0.151541 -0.19932584
000080 d9 0f 33 be 2c d7 59 be 56 03 42 be ed 0c 49 be
       -0.17486514 -0.21273488 -0.18946585 -0.19633837
000090 dc 8b b2 bb 43 75 34 be a1 1a 7d bd 6b c1 2b be
       -0.0054488014 -0.17622857 -0.061792973 -0.16773002
0000a0 fa 98 88 bd 21 4e 3d 3d 58 45 ac 3d 4f ff 1d be
       -0.06669803 0.046217088 0.08411664 -0.15429424
0000b0 b1 d0 39 be 34 8c 48 3e fc 76 bb bd 0d 14 5c 3e
       -0.18146016 0.19584733 -0.09153554 0.21492024
0000c0 72 0b 3c be 74 f5 aa bd 49 cf 66 be 94 11 8f 3c
       -0.18363741 -0.08347598 -0.2254001 0.017464437
0000d0 cc 67 cf 3d 02 ec 55 3d bf b5 a7 3d 28 b6 9b 3d
       0.101272196 0.052227028 0.08188962 0.07603103
0000e0 17 6e e3 3d d5 20 80 3e f7 6a 35 be 14 57 09 bc
       0.11104982 0.2502505 -0.17716585 -0.008382577
0000f0 24 f7 2c be 08 fb 2d 3e 27 25 ea 3d 04 e9 8b bd
       -0.16891152 0.16990292 0.114328675 -0.068315536

nn.2.weight f4 [5, 64]
000000 c7 ca da bc da 85 2c 3c c0 84 31 bd 1a 95 8f bd
       -0.02670802 0.01052996 -0.04333949 -0.07010861
000010 81 54 15 3e c0 8b eb 3b c0 73 a0 bc bd 70 10 3d
       0.14583017 0.0071882904 -0.019586444 0.035263766
000020 1b c3 c6 3c 28 4b 63 bd 20 94 58 bd c6 92 95 bc
       0.024262955 -0.055491596 -0.052875638 -0.018258464
000030 c6 d1 aa bd 70 cb 14 bc a7 3c 9a 3b 08 ad 80 3d
       -0.08340792 -0.009081706 0.0047069374 0.06283003
000040 40 c0 98 3d 85 3a a8 3d 58 d9 10 bc 48 0e 4d bd
       0.07458544 0.08214287 -0.008840881 -0.050062448
000050 64 68 93 3d 2e d6 2e 3c d8 1f 91 bd 6d 46 00 bd
       0.07197645 0.010671182 -0.07086152 -0.031317163
000060 61 ca 8b 3a 08 29 a1 3d 88 7a b7 3d 5b 76 f2 bc
       0.0010665172 0.07869154 0.08958918 -0.029597452
000070 f4 e5 1a 3d 4e d1 da 3c 05 0c f7 3d 44 5b 49 3d
       0.037816957 0.026711132 0.120628394 0.049159303
000080 5f d4 af bc a2 4f e8 3d ee 13 b5 bb c6 87 74 3d
       -0.021463571 0.11343314 -0.0055260574 0.059699796
000090 43 78 7c 3d f4 61 9d 3c fa 9d d6 bc ab 8b 25 3e
       0.061638128 0.019211747 -0.026198376 0.1616656
0000a0 28 3a 74 3d 90 95 72 bd ec ae a9 3d 1a 98 8b 3d
       0.059625775 -0.059224665 0.08285317 0.068161204
0000b0 2f dd e1 bc 8d c3 21 bb ff d2 69 bd 7c af f1 bc
       -0.027571289 -0.0024683208 -0.057085987 -0.029502623
0000c0 d0 bc 52 3c 4a 71 f4 bd 2e 6d 4d bd 8f 54 ed 3d
       0.012862399 -0.11935671 -0.05015295 0.11588394
0000d0 98 98 72 bd 04 26 8d 3d 0c b9 45 bd ad c3 6c bd
       -0.059227556 0.068920165 -0.048272178 -0.0578038
0000e0 0c 61 4a bd 92 68 29 3b 2b 24 9d bb 2a 68 68 bb
       -0.049408957 0.0025849682 -0.0047955713 -0.0035462477
0000f0 54 7e 36 bd 8b 57 fc 39 66 a1 59 3d 1d d5 1f 3d
       -0.04455407 0.0004813041 0.053132437 0.0390216
000100 bc d2 e7 bd 1e b4 6c 3d 90 56 f2 bd d7 38 c1 3d
       -0.11319491 0.05778896 -0.11832917 0.094346695
000110 9a b3 e3 bd e8 00 29 bd 8c 3a 70 bd 71 a4 af 3d
       -0.11118241 -0.04126063 -0.058649585 0.085762866
000120 2f f4 9c 3c 97 92 1c bc 84 4f 1b bd 95 05 93 bd
       0.019159405 -0.009556434 -0.03791763 -0.07178799
000130 30 1a 45 bc b0 2f 30 bd 2c b9 e0 bb 62 85 a0 bd
       -0.012030169 -0.04301423 -0.0068580117 -0.07837941
000140 68 6e 61 3d 61 06 10 bd d1 cd 4f 3b 72 78 98 3d
       0.055036932 -0.035162333 0.003170837 0.07444848
000150 8c 49 07 3e 74 4b df bb 50 0c 95 bd f9 6f 6d bd
       0.1321165 -0.0068144146 -0.07277739 -0.057968114
000160 02 1a 90 bc 96 6d 6e 3c 1a 15 a0 3d 2c 57 2f bd
       -0.017590526 0.0145524945 0.07816525 -0.042807743
000170 90 0f 25 3c 3d 27 73 3d 22 6d ba 3d 34 e3 a1 3d
       0.010074511 0.059363592 0.09102847 0.07904664
000180 0b f0 8c bd 70 88 e8 bd 0a 75 0f 3d bf e9 e9 3d
       -0.06881722 -0.113541484 0.035023727 0.11421537
000190 d4 cc 39 3d ad d5 43 bd 4d d2 97 bd e8 83 59 bc
       0.045361355 -0.0478112 -0.074131586 -0.013276078
0001a0 40 ca 77 3d 62 a5 be 3d a0 29 ab bd 80 12 73 bc
       0.060495615 0.09308888 -0.08357549 -0.014835954
0001b0 6a 4e 25 3d b4 2e 47 bb be 50 cc 3d 69 02 90 3d
       0.040357985 -0.0030392827 0.09976338 0.0703171
0001c0 48 03 54 bd da d7 c6 3d 80 0f 83 bb 6c 7f 24 3d
       -0.05176094 0.09709139 -0.0039996505 0.04016058
0001d0 46 12 c8 bd c6 c0 b0 37 12 ca d1 bd 8f ca ba 3b
       -0.097691104 2.1070602e-05 -0.1024362 0.0057004164
0001e0 64 40 04 3d e1 1c 7a bc b9 30 46 bc c6 95 e6 bb
       0.03228797 -0.015265674 -0.012096577 -0.0070368974
0001f0 ea f4 43 3d f4 24 e2 3d 4b 0c 8b bd 53 4c e8 3c
       0.04784099 0.110422045 -0.06789454 0.028356707
000200 0b 07 55 3d 99 af 1c 3d 50 e8 c6 3c 16 17 5f bd
       0.05200867 0.0382534 0.024280697 -0.054465376
000210 8b db 80 3c d0 06 9f 3c 78 73 69 bd f6 5f be 3c
       0.015729686 0.019412428 -0.056994885 0.023239117
000220 1f 0c 6a bd a0 dc 6e 3c bf 30 77 3d fe 32 a3 3c
       -0.057140466 0.014578968 0.060349222 0.019921776
000230 80 7a f1 ba c4 8e f7 bd 5c 86 95 3a 98 b2 ac bd
       -0.0018423349 -0.12087777 0.001140784 -0.084325016
000240 78 df b2 bd 26 b1 c7 3d fc 7d 07 3b 90 be 5f 3d
       -0.087340295 0.09750585 0.0020674458 0.054625094
000250 a3 11 c8 bd 5a 4b c5 39 96 ca fc bd 44 6c a9 bc
       -0.09768989 0.0003763091 -0.12343328 -0.020681508
000260 bd 80 40 3d ff dd 9f bd c0 da d4 bc 3b 2a e5 bc
       0.046997774 -0.07806014 -0.025983214 -0.027974239
000270 f6 de a6 3d 84 e0 ce ba 3c 23 d2 bd a0 9f ff 3c
       0.08147995 -0.0015783464 -0.10260627 0.031204045
000280 eb af 9c bc 3c 79 57 bd 31 b4 0b be fa be b5 3d
       -0.019126853 -0.052605852 -0.13642956 0.088743165
000290 d4 ed 4f 3d 9d 1c 6f 3d 04 12 c3 3c 11 be e6 bc
       0.05076392 0.058376897 0.023812301 -0.028166803
0002a0 a3 f7 a4 bd e0 6e 42 3c b4 bc 91 ba 00 2d 1c bb
       -0.080550455 0.011867255 -0.001111886 -0.0023830533
0002b0 60 b6 20 3d f4 b5 e6 3b 53 04 81 bd 4d 00 f9 3c
       0.039236426 0.0070407335 -0.06299653 0.030395651
0002c0 e4 22 01 3d 76 8a 9a 3d e1 74 19 3d 93 78 05 3d
       0.031527415 0.075459406 0.03746498 0.03258569
0002d0 40 d5 b8 3b 56 fd 96 bd 9a 57 44 bd 2b b4 df bd
       0.0056406558 -0.07372539 -0.047935106 -0.10923036
0002e0 74 86 66 3d 45 72 fd bb 2d 3e ff 3c 18 a0 ae 37
       0.05628057 -0.0077345693 0.031157577 2.0816966e-05
0002f0 46 a3 3e 3a 6e 1f c7 3c fc be 53 bc 00 b3 d1 bd
       0.00072722544 0.024306979 -0.012923952 -0.1023922
000300 18 db a7 bd bb 20 17 3d 30 9f fd 3c 76 65 bd 3c
       -0.08196086 0.03689645 0.030959696 0.02311967
000310 a8 4a 0f bb 6c 0c ae 3d e4 c6 1c 3d b8 df 90 bc
       -0.0021864567 0.08498463 0.038275614 -0.017684802
000320 a9 f1 11 3d 63 71 38 bd 49 4f e4 3b 11 ad c1 bd
       0.035630856 -0.04503001 0.0069674593 -0.09456838
000330 3a d0 bd bd 00 83 17 bc e7 a3 eb 3b e4 36 5d bd
       -0.09268232 -0.009247541 0.0071911695 -0.054007426
000340 44 99 75 bd 9a bd 73 3c a1 69 1f bb d2 32 cd 3d
       -0.05996062 0.0148767475 -0.0024324434 0.10019459
000350 8b 11 81 bd ad c3 61 3c 20 20 20 3c 96 c9 d5 bb
       -0.06302174 0.013779563 0.009773284 -0.006524275
000360 79 74 a5 3d 65 23 83 3d 50 50 b8 bd fa 95 b7 3d
       0.08078856 0.06403235 -0.089996934 0.08964153
000370 14 9b aa 3d 68 6d 45 bd 3c 60 f7 3c 0c 8d 39 3c
       0.0833036 -0.04820004 0.030197255 0.011325132
000380 eb ce 3b 3d 6e c0 af bd 44 fb 1d be ed 5a ba 3d
       0.04585163 -0.08581625 -0.15427881 0.09099374
000390 f7 c1 3b bc f4 53 1d be c0 cf 0a be e4 e2 07 3d
       -0.011459819 -0.15364057 -0.13555813 0.033175364
0003a0 c4 f4 6b bd 16 18 8c 3d 98 da 8f 3d 78 fc 12 bd
       -0.057606474 0.068405315 0.07024115 -0.035885304
0003b0 95 aa ae bd 93 49 a8 39 22 96 30 3d bb 32 ba 3c
       -0.0852863 0.00032098274 0.043111928 0.022729268
0003c0 08 d4 df bd 0a a5 d3 bd 8f ad ba 3c db bd 37 bd
       -0.109291136 -0.10334213 0.022787837 -0.044858795
0003d0 d0 81 03 bd 8b 06 c1 bc 7a 4a 6c 3d 86 d0 ed bd
       -0.03210622 -0.02356269 0.057688214 -0.11612038
0003e0 38 60 9c bc 2c a7 cf 3d 4b 7b 13 3d da 3e 24 3b
       -0.01908885 0.101393074 0.036006253 0.0025061877
0003f0 e0 13 c7 bd d6 a4 3e 3d ef c0 7e bd fd b4 9c 3d
       -0.09720588 0.04654392 -0.062195715 0.07651708

nn.2.bias f4 [5]
000000 fe 59 1a 3e 0d 3b a4 3d d4 89 3b bd af fc 1d 3d
       0.15073392 0.080190755 -0.04578574 0.038571056
000010 5c 27 97 3e
       0.29522216

exp_avg f4 [64, 21]
000000 04 00 00 00 04 00 00 00 04 00 00 00 04 00 00 00
       6e-45 6e-45 6e-45 6e-45
000010 04 00 00 00 04 00 00 00 04 00 00 00 04 00 00 00
       6e-45 6e-45 6e-45 6e-45
000020 04 00 00 00 04 00 00 00 04 00 00 00 04 00 00 00
       6e-45 6e-45 6e-45 6e-45
000030 04 00 00 00 04 00 00 00 04 00 00 00 04 00 00 00
       6e-45 6e-45 6e-45 6e-45
000040 04 00 00 00 04 00 00 00 04 00 00 00 04 00 00 00
       6e-45 6e-45 6e-45 6e-45
000050 04 00 00 00 19 16 5d 38 a8 cf 68 38 d8 f2 e2 38
       6e-45 5.2711086e-05 5.5506505e-05 0.00010821753
000060 a7 4f 7a 39 ee 61 57 bd 89 25 56 39 6b 3e 93 39
       0.0002387153 -0.052583627 0.00020422613 0.0002808453
000070 2d 51 fe 39 29 87 82 3a d4 ce 87 bd 69 52 0b b7
       0.00048507136 0.0009958494 -0.06631246 -8.304233e-06
000080 51 29 36 b8 c7 fd 58 b8 5f 65 d1 39 93 fd da bc
       -4.343066e-05 -5.173476e-05 0.00039939114 -0.026732242
000090 91 4c a2 38 8e 3c b1 bb 65 70 a0 bb f2 f3 19 bd
       7.7390236e-05 -0.00540883 -0.004896211 -0.03758616
0000a0 be d0 6a bc 1c a9 bb bb 00 00 00 00 00 00 00 00
       -0.014331995 -0.0057269465 0.0 0.0
0000b0 00 00 00 00 00 00 00 00 00 00 00 00 00 00 00 00
       0.0 0.0 0.0 0.0
0000c0 00 00 00 00 00 00 00 00 00 00 00 00 00 00 00 00
       0.0 0.0 0.0 0.0
0000d0 00 00 00 00 00 00 00 00 00 00 00 00 00 00 00 00
       0.0 0.0 0.0 0.0
0000e0 00 00 00 00 00 00 00 00 00 00 00 00 00 00 00 00
       0.0 0.0 0.0 0.0
0000f0 00 00 00 00 00 00 00 00 00 00 00 00 04 00 00 00
       0.0 0.0 0.0 6e-45
000100 04 00 00 00 04 00 00 00 04 00 00 00 04 00 00 00
       6e-45 6e-45 6e-45 6e-45
000110 04 00 00 00 04 00 00 00 04 00 00 00 04 00 00 00
       6e-45 6e-45 6e-45 6e-45
000120 04 00 00 00 04 00 00 00 04 00 00 00 04 00 00 00
       6e-45 6e-45 6e-45 6e-45
000130 04 00 00 00 04 00 00 00 04 00 00 00 04 00 00 00
       6e-45 6e-45 6e-45 6e-45
000140 04 00 00 00 04 00 00 00 04 00 00 00 04 00 00 00
       6e-45 6e-45 6e-45 6e-45
000150 aa 5d 4c 38 72 a8 dc 39 28 34 f6 39 ed b9 bd 3a
       4.872462e-05 0.00042087171 0.00046959636 0.0014474966
000160 4e 50 06 3e b7 49 4a b8 0c 79 79 39 a6 e6 46 39
       0.13116571 -4.8229205e-05 0.00023791584 0.00018968675
000170 f0 c0 ab 3a 0c 00 a8 3d 25 7b 1a 39 e2 65 bb 39
       0.0013103765 0.08203134 0.0001473246 0.00035743328
000180 ba 51 04 3a 22 ab d3 3a 63 68 ff 3c 5c cc 80 39
       0.00050475786 0.0016149024 0.031177705 0.00024566322
000190 df 9c 19 3d 36 61 7f 3c 5b 63 69 3e 08 5a da 3d
       0.03750312 0.015587142 0.22791807 0.10661703
0001a0 33 5d 02 3d 00 00 00 00 00 00 00 00 00 00 00 00
       0.031827163 0.0 0.0 0.0
0001b0 00 00 00 00 00 00 00 00 00 00 00 00 00 00 00 00
       0.0 0.0 0.0 0.0
0001c0 00 00 00 00 00 00 00 00 00 00 00 00 00 00 00 00
       0.0 0.0 0.0 0.0
0001d0 00 00 00 00 00 00 00 00 00 00 00 00 00 00 00 00
       0.0 0.0 0.0 0.0
0001e0 00 00 00 00 00 00 00 00 00 00 00 00 00 00 00 00
       0.0 0.0 0.0 0.0
0001f0 00 00 00 00 00 00 00 00 00 00 00 00 00 00 00 00
       0.0 0.0 0.0 0.0
000200 00 00 00 00 00 00 00 00 00 00 00 00 00 00 00 00
       0.0 0.0 0.0 0.0
000210 00 00 00 00 00 00 00 00 00 00 00 00 00 00 00 00
       0.0 0.0 0.0 0.0
000220 00 00 00 00 00 00 00 00 00 00 00 00 00 00 00 00
       0.0 0.0 0.0 0.0
000230 00 00 00 00 00 00 00 00 00 00 00 00 00 00 00 00
       0.0 0.0 0.0 0.0
000240 00 00 00 00 00 00 00 00 00 00 00 00 04 00 00 00
       0.0 0.0 0.0 6e-45
000250 04 00 00 00 04 00 00 00 04 00 00 00 04 00 00 00
       6e-45 6e-45 6e-45 6e-45
000260 04 00 00 00 04 00 00 00 04 00 00 00 04 00 00 00
       6e-45 6e-45 6e-45 6e-45
000270 04 00 00 00 04 00 00 00 04 00 00 00 04 00 00 00
       6e-45 6e-45 6e-45 6e-45
000280 04 00 00 00 04 00 00 00 04 00 00 00 04 00 00 00
       6e-45 6e-45 6e-45 6e-45
000290 04 00 00 00 04 00 00 00 04 00 00 00 04 00 00 00
       6e-45 6e-45 6e-45 6e-45
0002a0 34 25 f8 ba 50 a8 48 bb 77 5d a2 bb e1 e1 9c bc
       -0.0018931986 -0.00306179 -0.0049549895 -0.019150676
0002b0 69 fe 81 bf af c0 a2 ba 6d 91 1e bb c2 f1 6f bb
       -1.0155765 -0.0012417043 -0.0024195567 -0.0036612605
0002c0 fc 60 8b bc ce ab 83 bf 01 25 2e bb ba cc 42 bb
       -0.01701402 -1.0286806 -0.002657235 -0.0029724077
0002d0 dc 78 b8 bb ea ef a0 bc 70 6e 2d bf 33 bd c7 ba
       -0.005629642 -0.01964565 -0.6774664 -0.0015238881
0002e0 f8 c1 a8 be a6 6f db bd 16 4a 0a c0 d5 17 81 bf
       -0.32960486 -0.107146546 -2.1607718 -1.0085398
0002f0 9c db 9f be 2a 22 13 bb ad 9d 8b bb c1 2e d5 bb
       -0.31222236 -0.0022450783 -0.00426074 -0.0065058176
000300 cd 96 a5 bc 13 c6 8c bf 63 70 da ba d9 82 53 bb
       -0.020213509 -1.0997947 -0.0016665574 -0.0032274036
000310 85 5d a0 bb 06 41 9f bc 5d f4 87 bf f1 36 27 bb
       -0.004893961 -0.019440185 -1.0621449 -0.0025514925
000320 ae 0e 6e bb d1 a2 ca bb 2d 69 b0 bc 8e 58 3a bf
       -0.0036324668 -0.00618396 -0.021534527 -0.72791374
000330 b3 c6 d5 ba 3d d9 b9 be a9 6d 05 be 44 af 15 c0
       -0.0016309827 -0.36298552 -0.13030113 -2.3388224
000340 66 d9 90 bf 23 3c ae be 00 00 00 00 04 00 00 00
       -1.1316345 -0.34030256 0.0 6e-45
000350 04 00 00 00 04 00 00 00 04 00 00 00 04 00 00 00
       6e-45 6e-45 6e-45 6e-45
000360 04 00 00 00 04 00 00 00 04 00 00 00 04 00 00 00
       6e-45 6e-45 6e-45 6e-45
000370 00 00 00 00 04 00 00 00 04 00 00 00 04 00 00 00
       0.0 6e-45 6e-45 6e-45
000380 04 00 00 00 04 00 00 00 04 00 00 00 04 00 00 00
       6e-45 6e-45 6e-45 6e-45
000390 04 00 00 00 04 00 00 00 04 00 00 00 04 00 00 00
       6e-45 6e-45 6e-45 6e-45
0003a0 04 00 00 00 04 00 00 00 04 00 00 00 04 00 00 00
       6e-45 6e-45 6e-45 6e-45
0003b0 04 00 00 00 04 00 00 00 04 00 00 00 04 00 00 00
       6e-45 6e-45 6e-45 6e-45
0003c0 04 00 00 00 04 00 00 00 04 00 00 00 04 00 00 00
       6e-45 6e-45 6e-45 6e-45
0003d0 04 00 00 00 04 00 00 00 04 00 00 00 04 00 00 00
       6e-45 6e-45 6e-45 6e-45
0003e0 04 00 00 00 04 00 00 00 04 00 00 00 04 00 00 00
       6e-45 6e-45 6e-45 6e-45
0003f0 00 00 00 00 00 00 00 00 00 00 00 00 00 00 00 00
       0.0 0.0 0.0 0.0

exp_avg_sq f4 [64, 21]
000000 88 57 1a 37 17 d1 d3 37 9d a8 87 38 0c 34 65 3a
       9.199495e-06 2.5250525e-05 6.468708e-05 0.00087434123
000010 29 91 96 3f a4 f6 15 37 59 8f e6 37 a1 fa 8d 38
       1.1763049 8.938518e-06 2.7484888e-05 6.770087e-05
000020 fc 9d 6e 3a 76 99 ba 3f 9d d2 02 37 1c d6 d0 37
       0.0009102521 1.4578083 7.797641e-06 2.4895235e-05
000030 df bc 7d 38 96 d2 60 3a b6 23 ad 3f a0 6c 49 38
       6.04958e-05 0.00085763016 1.3526523 4.80233e-05
000040 69 d3 8f 3e 11 f5 ba 3c f2 e1 34 41 6e fe 31 40
       0.2809098 0.022821935 11.305162 2.7811542
000050 d6 48 71 3e 9a 30 f1 38 50 7e 9e 39 bd 97 49 3a
       0.23562941 0.00011500828 0.00030230219 0.0007690152
000060 6c 0b 1c 3c e0 a0 3d 41 6d 3a ef 38 a2 d4 a2 39
       0.009524208 11.851776 0.00011407291 0.00031057472
000070 09 9c 4d 3a 16 9d 25 3c 2f dd 4f 41 34 8b f2 38
       0.00078433804 0.010108253 12.9915 0.00011565388
000080 4d e2 a3 39 dc 36 4f 3a dc e5 24 3c 9a 7b 53 41
       0.0003125839 0.0007904598 0.010064568 13.217676
000090 ef 3f 23 3a 45 b8 31 40 8d a8 65 3e ff 57 e6 42
       0.00062274834 2.776872 0.22427578 115.17187
0000a0 0a 52 e5 41 97 57 1a 40 00 00 00 00 00 00 00 00
       28.665058 2.411596 0.0 0.0
0000b0 00 00 00 00 00 00 00 00 00 00 00 00 00 00 00 00
       0.0 0.0 0.0 0.0
0000c0 00 00 00 00 00 00 00 00 00 00 00 00 00 00 00 00
       0.0 0.0 0.0 0.0
0000d0 00 00 00 00 00 00 00 00 00 00 00 00 00 00 00 00
       0.0 0.0 0.0 0.0
0000e0 00 00 00 00 00 00 00 00 00 00 00 00 00 00 00 00
       0.0 0.0 0.0 0.0
0000f0 00 00 00 00 00 00 00 00 00 00 00 00 10 3c a5 32
       0.0 0.0 0.0 1.9235841e-08
000100 03 dc b1 33 e2 38 43 34 39 fb 70 36 70 3c f1 3b
       8.282225e-08 1.8181484e-07 3.5909018e-06 0.007361941
000110 9f 4d 10 32 38 20 12 33 0e 85 a3 33 1c ca 0d 36
       8.399552e-09 3.4022577e-08 7.6144815e-08 2.112828e-06
000120 0b 1f 39 3b 5b e3 e6 31 12 a7 c1 33 95 9e 1c 34
       0.0028247263 6.7197283e-09 9.017653e-08 1.4586324e-07
000130 96 18 f5 35 84 b1 54 3a 3e cc 1b 35 4c 2a ad 3a
       1.8261078e-06 0.000811361 5.803921e-07 0.0013211458
000140 82 ca 9a 38 3f 8d 6f 3d 21 5d 6b 3c 5a 2c 96 3a
       7.381012e-05 0.058484312 0.014365465 0.001145731
000150 08 55 5f 38 2a 5f 1c 39 73 a6 c5 39 f7 f9 a8 3b
       5.3246535e-05 0.0001491277 0.00037698782 0.0051567513
000160 40 c0 ce 40 43 63 67 38 43 77 1f 39 1d f9 ca 39
       6.460968 5.5167136e-05 0.0001520785 0.00038714046
000170 6b 5a b2 3b 22 33 df 40 73 ff 56 38 bb 6f 20 39
       0.0054429076 6.974992 5.125948e-05 0.00015300412
000180 de 50 c6 39 c4 cc ae 3b 76 8a e7 40 30 ab a2 39
       0.00037825754 0.0053344686 7.235652 0.00031026592
000190 5d 04 be 3f cc 8f e8 3d 43 73 79 42 27 6e 78 41
       1.4845082 0.11355552 62.36256 15.526893
0001a0 f9 5d a7 3f 00 00 00 00 00 00 00 00 00 00 00 00
       1.3075553 0.0 0.0 0.0
0001b0 00 00 00 00 00 00 00 00 00 00 00 00 00 00 00 00
       0.0 0.0 0.0 0.0
0001c0 00 00 00 00 00 00 00 00 00 00 00 00 00 00 00 00
       0.0 0.0 0.0 0.0
0001d0 00 00 00 00 00 00 00 00 00 00 00 00 00 00 00 00
       0.0 0.0 0.0 0.0
0001e0 00 00 00 00 00 00 00 00 00 00 00 00 00 00 00 00
       0.0 0.0 0.0 0.0
0001f0 00 00 00 00 00 00 00 00 00 00 00 00 00 00 00 00
       0.0 0.0 0.0 0.0
000200 00 00 00 00 00 00 00 00 00 00 00 00 00 00 00 00
       0.0 0.0 0.0 0.0
000210 00 00 00 00 00 00 00 00 00 00 00 00 00 00 00 00
       0.0 0.0 0.0 0.0
000220 00 00 00 00 00 00 00 00 00 00 00 00 00 00 00 00
       0.0 0.0 0.0 0.0
000230 00 00 00 00 00 00 00 00 00 00 00 00 00 00 00 00
       0.0 0.0 0.0 0.0
000240 00 00 00 00 00 00 00 00 00 00 00 00 9b 0b 2a 38
       0.0 0.0 0.0 4.0541967e-05
000250 bd 2b e6 38 fb 14 94 39 8f ac 77 3b d8 ab b3 40
       0.000109754015 0.0002824439 0.0037792062 5.614727
000260 1b 21 2c 38 b1 5e 02 39 38 47 a1 39 3b a9 85 3b
       4.1038827e-05 0.00012433041 0.00030761375 0.0040790117
000270 c5 d6 ce 40 ae f9 0f 38 c0 3d e2 38 db 24 8a 39
       6.463717 3.432639e-05 0.000107880216 0.0002634887
000280 5d a9 74 3b 06 49 bc 40 aa 87 51 39 b6 29 97 3f
       0.0037332394 5.883914 0.00019982332 1.1809604
000290 98 4e c7 3d 5a fb 3f 42 3d 86 40 41 8a 92 81 3f
       0.097317874 47.99546 12.032773 1.0122845
0002a0 7b 75 99 39 90 8f 47 3a 97 2e fe 3a 9e d4 ca 3c
       0.00029269964 0.000761264 0.0019392547 0.024759587
0002b0 bb d6 f8 41 92 97 96 39 55 a2 4c 3a a8 09 01 3b
       31.104849 0.00028723158 0.0007806172 0.0019689593
0002c0 65 da d4 3c 2e b2 07 42 40 9b 91 39 2e 55 48 3a
       0.025983045 33.924004 0.00027772225 0.00076420873
0002d0 ce 2c fb 3a f0 db ce 3c 75 e3 07 42 e2 61 de 3a
       0.0019163133 0.025251359 33.972126 0.0016966427
0002e0 79 27 e2 40 5b 44 14 3f 86 fa 91 43 40 6e 91 42
       7.0673184 0.579168 291.9572 72.71533
0002f0 c5 b0 c3 40 fe a9 5f 39 8e b3 13 3a c5 75 bb 3a
       6.1153283 0.00021330264 0.0005634361 0.0014302066
000300 3c 92 96 3c 41 12 b8 41 93 34 5b 39 3f e8 16 3a
       0.018380277 23.008913 0.00020905053 0.0005756653
000310 0d d0 bd 3a 1f 86 9d 3c df 07 ca 41 aa 34 52 39
       0.001448156 0.019228993 25.253843 0.0002004678
000320 9e fb 13 3a 82 3e b8 3a f2 45 99 3c fe dc cb 41
       0.0005645099 0.0014056715 0.01871011 25.482906
000330 8a 1f 9f 3a a0 51 ac 40 80 ae dc 3e 24 49 60 43
       0.0012140137 5.384964 0.43101883 224.2857
000340 dd b6 5f 42 a6 7b 96 40 00 00 00 00 ad 32 90 30
       55.928577 4.702594 0.0 1.0491782e-09
000350 ad 32 90 30 39 4f e1 32 b1 44 96 36 14 2d 00 2f
       1.0491782e-09 2.6229474e-08 4.478345e-06 1.1657547e-10
000360 b4 be 86 31 bb 36 b9 31 ed 73 d5 32 7f cb ea 38
       3.9215937e-09 5.3904308e-09 2.484918e-08 0.000111958936
000370 00 00 00 00 41 3c a7 30 41 3c a7 30 55 a7 14 32
       0.0 1.2167974e-09 1.2167974e-09 8.652781e-09
000380 81 91 81 36 05 45 c4 32 a6 31 b8 37 96 cd 5c 36
       3.8614385e-06 2.284879e-08 2.1957629e-05 3.2902221e-06
000390 c7 b2 53 3a e3 37 4f 39 59 93 84 37 e0 fe 6e 35
       0.0008075651 0.00019761878 1.580424e-05 8.90328e-07
0003a0 80 41 34 36 2c 4d df 36 fd 1a d3 38 be 18 b4 3d
       2.6860216e-06 6.654902e-06 0.00010066291 0.08793782
0003b0 79 05 53 35 d7 91 05 36 c4 99 b0 36 81 36 d9 38
       7.861159e-07 1.9903434e-06 5.2631094e-06 0.000103575185
0003c0 ad 35 40 3d 2f 13 0e 35 54 b8 17 36 00 95 a6 36
       0.04692619 5.292704e-07 2.2608046e-06 4.9645314e-06
0003d0 22 a8 e0 38 12 6c c3 3d f7 c1 9a 37 37 a1 35 3d
       0.000107124695 0.09542097 1.8448553e-05 0.0443432
0003e0 cb 8a 11 3b 88 fc 01 40 61 71 00 3f 60 d8 2b 3d
       0.0022207971 2.0310383 0.50173 0.0419544
0003f0 00 00 00 00 00 00 00 00 00 00 00 00 00 00 00 00
       0.0 0.0 0.0 0.0

exp_avg f4 [64]
000000 04 00 00 00 cf 1e 75 b9 00 00 00 00 04 00 00 00
       6e-45 -0.00023376498 0.0 6e-45
000010 44 0a a3 3a 00 00 00 00 00 00 00 00 04 00 00 00
       0.0012438972 0.0 0.0 6e-45
000020 64 a8 44 bc ac 06 52 bc 04 00 00 00 04 00 00 00
       -0.012003038 -0.0128189735 6e-45 6e-45
000030 00 00 00 00 00 00 00 00 b5 bc d8 39 00 00 00 00
       0.0 0.0 0.00041339328 0.0
000040 00 00 00 00 bc 18 70 bd 5c 92 cb bb 00 00 00 00
       0.0 -0.05861734 -0.0062125158 0.0
000050 04 00 00 00 ce ea 2a 3c 00 00 00 00 04 00 00 00
       6e-45 0.010431958 0.0 6e-45
000060 48 f8 1b bd 04 00 00 00 00 00 00 00 5d 68 08 bd
       -0.038078576 6e-45 0.0 -0.033302654
000070 00 00 00 00 04 00 00 00 ba f3 be 19 04 00 00 00
       0.0 6e-45 1.974398e-23 6e-45
000080 04 00 00 00 00 00 00 00 04 00 00 00 04 00 00 00
       6e-45 0.0 6e-45 6e-45
000090 5c 7d d0 bc 04 00 00 00 04 00 00 00 04 00 00 00
       -0.025450401 6e-45 6e-45 6e-45
0000a0 59 a3 19 39 00 00 00 00 b6 96 e0 39 00 00 00 00
       0.00014652069 0.0 0.00042836898 0.0
0000b0 85 fc c5 bb 65 21 0b bd 04 00 00 00 84 8e 56 bd
       -0.0060420656 -0.033967394 6e-45 -0.052382007
0000c0 00 00 00 00 00 00 00 00 ca 4b 21 bc 04 00 00 00
       0.0 0.0 -0.00984473 6e-45
0000d0 00 00 00 00 04 00 00 00 35 25 0b bc f0 0b a4 bd
       0.0 6e-45 -0.008492758 -0.080100894
0000e0 00 00 00 00 1c 19 02 bd 97 01 c1 3a a8 09 dd 3c
       0.0 -0.031762227 0.0014725205 0.026982144
0000f0 d9 c5 47 3b 06 83 8d bb ae d7 ef bb 70 52 d6 ba
       0.0030482917 -0.0043185977 -0.007319412 -0.0016351473

exp_avg_sq f4 [64]
000000 07 9f ac 39 8f 11 5b 3b 00 00 00 00 0f a8 dd 35
       0.0003292488 0.0033427214 0.0 1.6514695e-06
000010 29 5c ed 3a 00 00 00 00 00 00 00 00 59 8b b6 3a
       0.0018109131 0.0 0.0 0.0013927027
000020 2e d2 0a 3c f5 41 d5 3b 05 45 c4 32 7f a6 76 38
       0.008472962 0.006508107 2.284879e-08 5.8806032e-05
000030 00 00 00 00 00 00 00 00 c3 39 ba 3a 00 00 00 00
       0.0 0.0 0.0014207888 0.0
000040 00 00 00 00 4c 22 14 3d 99 e7 e4 3b 00 00 00 00
       0.0 0.03616552 0.0069856164 0.0
000050 b7 0a db 37 e2 e0 3c 3b 00 00 00 00 9d a2 39 37
       2.6111824e-05 0.0028820564 0.0 1.1064721e-05
000060 d3 f5 97 3c 2b 82 6a 39 00 00 00 00 3b 62 99 3c
       0.018549835 0.0002236447 0.0 0.018723598
000070 00 00 00 00 8e 89 c6 39 16 6e 52 3a 37 8a c9 38
       0.0 0.0003786799 0.00080272683 9.6101714e-05
000080 23 7f c8 39 00 00 00 00 84 ba 7a 39 a0 7b fd 38
       0.00038241697 0.0 0.0002391134 0.00012087007
000090 64 1b 13 3c 4b bc 87 38 65 d2 4e 38 4f 17 8e 36
       0.008978698 6.472374e-05 4.9310172e-05 4.2346433e-06
0000a0 74 8b 83 3b 00 00 00 00 ad d2 26 3b 00 00 00 00
       0.004014427 0.0 0.0025455162 0.0
0000b0 51 eb 23 3b b8 73 53 3b 84 c5 9a 3a 10 af 0c 3d
       0.0025012086 0.0032265019 0.0011808132 0.03434664
0000c0 00 00 00 00 00 00 00 00 89 ce b0 3a 26 9b 54 2e
       0.0 0.0 0.0013489287 4.834102e-11
0000d0 00 00 00 00 6a 30 98 39 63 4b a1 3b 3f 12 76 3d
       0.0 0.0002902777 0.004922317 0.060075995
0000e0 00 00 00 00 5e f4 66 3c d8 c4 23 3b 3e 2e 96 3d
       0.0 0.014096348 0.0024989154 0.07333039
0000f0 f9 6f 27 3a 87 a8 95 3a 36 a0 fa 3a 7b 3f bf 39
       0.00063872297 0.0011418023 0.0019121233 0.00036477656

exp_avg f4 [5, 64]
000000 04 00 00 00 f6 f0 27 3c 00 00 00 00 04 00 00 00
       6e-45 0.010250321 0.0 6e-45
000010 bc e9 54 3c 00 00 00 00 00 00 00 00 04 00 00 80
       0.01299518 0.0 0.0 -6e-45
000020 aa 02 bc 3c af 4d ce 3b 04 00 00 80 04 00 00 80
       0.02295049 0.0062958817 -6e-45 -6e-45
000030 00 00 00 00 00 00 00 00 29 48 6c 3c 00 00 00 00
       0.0 0.0 0.014421501 0.0
000040 00 00 00 00 bd 0c 56 3c 8e cd 9d bd 00 00 00 00
       0.0 0.0130645605 -0.07705222 0.0
000050 04 00 00 80 2e 43 7c 3b 00 00 00 00 04 00 00 80
       -6e-45 0.003849219 0.0 -6e-45
000060 d8 9f 6c 3b 04 00 00 00 00 00 00 00 cb e9 9c 3b
       0.0036106016 6e-45 0.0 0.0047886125
000070 00 00 00 00 04 00 00 80 31 e9 26 17 04 00 00 80
       0.0 -6e-45 5.393182e-25 -6e-45
000080 04 00 00 80 00 00 00 00 04 00 00 80 04 00 00 00
       -6e-45 0.0 -6e-45 6e-45
000090 94 00 d2 3b 04 00 00 80 04 00 00 80 04 00 00 80
       0.0064087603 -6e-45 -6e-45 -6e-45
0000a0 4a 98 16 bc 00 00 00 00 84 43 60 bc 00 00 00 00
       -0.009191582 0.0 -0.013687972 0.0
0000b0 e7 98 93 3b a9 0e 26 3c 04 00 00 80 23 a0 2f bc
       0.0045043114 0.010135331 -6e-45 -0.010719332
0000c0 00 00 00 00 00 00 00 00 12 63 9d bc 04 00 00 80
       0.0 0.0 -0.01921228 -6e-45
0000d0 00 00 00 00 04 00 00 00 6e cf 32 bc d5 b9 21 3c
       0.0 6e-45 -0.010913713 0.009870966
0000e0 00 00 00 00 25 bf e4 3c 67 22 9d 3b c5 98 e5 3c
       0.0 0.027923176 0.004795361 0.028026948
0000f0 de 74 6b ba 6a a5 3c ba 63 96 81 3b 5f 87 38 3c
       -0.0008981953 -0.00071962795 0.003954695 0.011262744
000100 04 00 00 00 dd 2b 3b 3c 00 00 00 00 04 00 00 80
       6e-45 0.011424032 0.0 -6e-45
000110 74 16 83 bc 00 00 00 00 00 00 00 00 04 00 00 00
       -0.016001917 0.0 0.0 6e-45
000120 e3 0e 53 bb b0 bd 87 bc 04 00 00 00 04 00 00 80
       -0.0032204918 -0.016569942 6e-45 -6e-45
000130 00 00 00 00 00 00 00 00 ee f1 9c bb 00 00 00 00
       0.0 0.0 -0.0047895825 0.0
000140 00 00 00 00 fc 62 e3 bd 7a dc 8f bd 00 00 00 00
       0.0 -0.11102864 -0.070244744 0.0
000150 04 00 00 00 8e fe d6 bc 00 00 00 00 04 00 00 80
       6e-45 -0.026244428 0.0 -6e-45
000160 be c1 ab bd 04 00 00 00 00 00 00 00 f2 16 99 bd
       -0.08386563 6e-45 0.0 -0.074750796
000170 00 00 00 00 04 00 00 00 7b bb 5c 97 04 00 00 80
       0.0 6e-45 -7.1322468e-25 -6e-45
000180 04 00 00 00 00 00 00 00 04 00 00 80 04 00 00 80
       6e-45 0.0 -6e-45 -6e-45
000190 39 e8 a2 bd 04 00 00 80 04 00 00 80 04 00 00 80
       -0.07954449 -6e-45 -6e-45 -6e-45
0001a0 7e e9 e1 bb 00 00 00 00 89 43 e6 bc 00 00 00 00
       -0.0068942895 0.0 -0.028108375 0.0
0001b0 8f 2b 54 bc 14 c7 01 bd 04 00 00 80 28 8a f0 bd
       -0.012949838 -0.031683996 -6e-45 -0.11745101
0001c0 00 00 00 00 00 00 00 00 22 27 0c bc 04 00 00 00
       0.0 0.0 -0.008554252 6e-45
0001d0 00 00 00 00 04 00 00 80 e4 4a 0c bd ef d3 1e be
       0.0 -6e-45 -0.03425111 -0.15510534
0001e0 00 00 00 00 bd fe f3 bc a1 c6 b0 bb 89 39 12 bd
       0.0 -0.029784555 -0.005394772 -0.0356994
0001f0 5a c6 8a ba ff 67 83 bc 4e a3 29 bc 0a e8 bc bb
       -0.0010587678 -0.0160408 -0.010353876 -0.005764966
000200 04 00 00 80 c0 57 3f 3b 00 00 00 00 04 00 00 80
       -6e-45 0.002919659 0.0 -6e-45
000210 05 99 bf 3b 00 00 00 00 00 00 00 00 04 00 00 80
       0.005847099 0.0 0.0 -6e-45
000220 9d 49 b6 bc e4 90 2b 3c 04 00 00 00 04 00 00 00
       -0.022251898 0.010471556 6e-45 6e-45
000230 00 00 00 00 00 00 00 00 28 39 04 bb 00 00 00 00
       0.0 0.0 -0.002017567 0.0
000240 00 00 00 00 aa b2 12 3d 37 dc 04 3c 00 00 00 00
       0.0 0.03581492 0.008109144 0.0
000250 04 00 00 80 54 8a 90 3c 00 00 00 00 04 00 00 00
       -6e-45 0.017644085 0.0 6e-45
000260 1c 87 21 3d 04 00 00 80 00 00 00 00 57 b5 12 3d
       0.03943549 -6e-45 0.0 0.03581747
000270 00 00 00 00 04 00 00 00 17 47 cd 97 04 00 00 00
       0.0 6e-45 -1.326576e-24 6e-45
000280 04 00 00 00 00 00 00 00 04 00 00 00 04 00 00 80
       6e-45 0.0 6e-45 -6e-45
000290 d8 43 b6 3c 04 00 00 00 04 00 00 00 04 00 00 00
       0.022249147 6e-45 6e-45 6e-45
0002a0 b3 da d2 3a 00 00 00 00 c7 9d c9 3b 00 00 00 00
       0.0016086906 0.0 0.0061528417 0.0
0002b0 40 18 85 3a 0b e5 67 3c 04 00 00 00 c4 78 13 3d
       0.0010154322 0.014153729 6e-45 0.036003843
0002c0 00 00 00 00 00 00 00 00 09 0a b0 3c 04 00 00 80
       0.0 0.0 0.02148916 -6e-45
0002d0 00 00 00 00 04 00 00 80 9b da 8c b8 57 a8 6f 3d
       0.0 -6e-45 -6.716439e-05 0.05851015
0002e0 00 00 00 00 15 9c 82 3b be ea 21 3c 2f 4b 83 3d
       0.0 0.0039858916 0.009882627 0.064108245
0002f0 96 d7 37 3a 73 b1 a0 3b ae af ad bb 70 98 82 3b
       0.0007013021 0.004903966 -0.0053004837 0.003985457
000300 04 00 00 80 5c 47 97 3d 00 00 00 00 04 00 00 80
       -6e-45 0.073866576 0.0 -6e-45
000310 4e ae 97 3d 00 00 00 00 00 00 00 00 04 00 00 80
       0.07406293 0.0 0.0 -6e-45
000320 74 56 73 3e 20 a4 69 3e 04 00 00 00 04 00 00 00
       0.23763448 0.22816515 6e-45 6e-45
000330 00 00 00 00 00 00 00 00 8d f0 1a bc 00 00 00 00
       0.0 0.0 -0.009456766 0.0
000340 00 00 00 00 84 84 c7 3f ad 41 5c bb 00 00 00 00
       0.0 1.5587316 -0.0033608482 0.0
000350 04 00 00 00 53 b1 36 3d 00 00 00 00 04 00 00 80
       6e-45 0.044602703 0.0 -6e-45
000360 73 6c 9e 3f 04 00 00 80 00 00 00 00 a3 56 54 3f
       1.2376846 -6e-45 0.0 0.829447
000370 00 00 00 00 04 00 00 00 be a7 29 98 04 00 00 80
       0.0 6e-45 -2.1927426e-24 -6e-45
000380 04 00 00 00 00 00 00 00 04 00 00 00 04 00 00 80
       6e-45 0.0 6e-45 -6e-45
000390 9f 81 73 3f 04 00 00 00 04 00 00 00 04 00 00 00
       0.9511966 6e-45 6e-45 6e-45
0003a0 ee 7e 40 3c 00 00 00 00 33 f2 24 3e 00 00 00 00
       0.011749012 0.0 0.16108017 0.0
0003b0 b5 85 4c 3e f9 9b 8b 3e 04 00 00 00 09 c8 bf 3f
       0.1997288 0.27267435 6e-45 1.4982921
0003c0 00 00 00 00 00 00 00 00 f8 54 86 3d 04 00 00 80
       0.0 0.0 0.06559175 -6e-45
0003d0 00 00 00 00 04 00 00 80 e9 21 bd 3e 56 a5 0b 40
       0.0 -6e-45 0.36939934 2.1819663
0003e0 00 00 00 00 c0 30 24 3f bd 35 c3 3c d6 e8 88 3d
       0.0 0.64136887 0.023829335 0.06685035
0003f0 f6 7d 91 39 20 e4 68 3e 3c 78 4c 3e ed c5 cb 3d
       0.00027750403 0.22743273 0.19967741 0.09949861

exp_avg_sq f4 [5, 64]
000000 b9 c6 5b 3f f8 17 39 40 00 00 00 00 83 57 ac 38
       0.858501 2.892088 0.0 8.2178994e-05
000010 59 7c b3 40 00 00 00 00 00 00 00 00 31 2a 16 3f
       5.608929 0.0 0.0 0.5865813
000020 76 75 8f 40 3d 7b e2 40 b1 48 1c 34 6d 6c ce 3b
       4.4830885 7.0775437 1.4555077e-07 0.0062995465
000030 00 00 00 00 00 00 00 00 22 e9 10 40 00 00 00 00
       0.0 0.0 2.2642293 0.0
000040 00 00 00 00 76 11 ba 41 11 5f 9d 41 00 00 00 00
       0.0 23.258526 19.67142 0.0
000050 1d 7a 05 3e 74 db 04 41 00 00 00 00 44 c3 47 3e
       0.13034864 8.303577 0.0 0.19508082
000060 9e 73 01 42 b2 03 a3 3f 00 00 00 00 3c f0 74 41
       32.362907 1.2735503 0.0 15.308651
000070 00 00 00 00 bf 00 53 40 ae 80 44 40 da 9c a3 3e
       0.0 3.2969205 3.070354 0.31955606
000080 1b e0 3e 3f 00 00 00 00 a6 c1 40 3e cb a4 f9 3c
       0.7456071 0.0 0.18823871 0.030474087
000090 07 41 66 42 fb 75 30 40 98 7c 23 41 c9 4f a4 3b
       57.563503 2.757201 10.217918 0.005014394
0000a0 d7 d1 13 41 00 00 00 00 04 cf 6e 41 00 00 00 00
       9.23873 0.0 14.925541 0.0
0000b0 10 0b 77 41 8b 64 9d 40 e1 ec 8e 3e 30 20 da 41
       15.440201 4.9185233 0.279151 27.265717
0000c0 00 00 00 00 00 00 00 00 ad 0c 20 41 2e 89 d7 30
       0.0 0.0 10.003095 1.5682298e-09
0000d0 00 00 00 00 14 5a 75 3e a7 55 fc 41 09 db 07 42
       0.0 0.23960143 31.541822 33.9639
0000e0 00 00 00 00 9f 7c f4 40 d4 17 5c 41 ef ff 7e 3d
       0.0 7.6402125 13.755817 0.062255796
0000f0 50 3b 28 40 ac 8b 05 42 3a 6f 2f 42 3b c3 54 41
       2.6286201 33.3864 43.85862 13.297664
000100 8c e3 a4 3e a3 60 92 3f 00 00 00 00 91 9f 41 38
       0.32204854 1.1435741 0.0 4.6163394e-05
000110 5e e6 e7 3f 00 00 00 00 00 00 00 00 3b 7a 6d 3e
       1.8117177 0.0 0.0 0.23191158
000120 94 e6 db 3f a1 83 31 40 15 ad cf 31 e3 e7 2b 3a
       1.7179742 2.773659 6.04417e-09 0.0006557686
000130 00 00 00 00 00 00 00 00 1d 75 79 3f 00 00 00 00
       0.0 0.0 0.97444326 0.0
000140 00 00 00 00 f0 34 1c 41 da 24 db 40 00 00 00 00
       0.0 9.762924 6.8482485 0.0
000150 e2 ee 2d 3d ad a2 3a 40 00 00 00 00 3e 20 81 3d
       0.042464145 2.916179 0.0 0.06304978
000160 e7 a4 4c 41 45 6b f1 3e 00 00 00 00 37 30 cc 40
       12.790259 0.47152153 0.0 6.3808856
000170 00 00 00 00 2f 84 86 3f c2 98 79 3f 72 a4 8a 3d
       0.0 1.0509089 0.97498715 0.06769647
000180 10 44 83 3e 00 00 00 00 e3 1e 01 3d 63 3d df 3c
       0.25637865 0.0 0.031523596 0.027250951
000190 e1 f1 b0 41 ba 41 5e 3f d5 32 5b 40 9f 55 ee 39
       22.118105 0.8681904 3.4249775 0.0004545869
0001a0 f2 7f 66 40 00 00 00 00 2e e5 b6 40 00 00 00 00
       3.6015592 0.0 5.715476 0.0
0001b0 fc aa ba 40 d4 35 f5 3f 23 49 78 3d a7 b6 35 41
       5.833372 1.9157052 0.060616624 11.357093
0001c0 00 00 00 00 00 00 00 00 25 50 58 40 ce 45 d0 32
       0.0 0.0 3.3798916 2.424613e-08
0001d0 00 00 00 00 d1 8f cd 3d b0 7a 41 41 a3 f1 68 41
       0.0 0.100371964 12.092453 14.558993
0001e0 00 00 00 00 ba 2b 3f 40 e0 5a 98 40 79 57 30 3d
       0.0 2.9870439 4.761093 0.04305217
0001f0 4a 26 58 3f e2 49 3a 41 76 42 83 41 53 bd 90 40
       0.84433424 11.643038 16.407452 4.523111
000200 84 b5 83 3f ea ec 41 40 00 00 00 00 36 3d 83 39
       1.0289769 3.030085 0.0 0.00025031873
000210 0f 71 e0 40 00 00 00 00 00 00 00 00 c5 12 39 3f
       7.013801 0.0 0.0 0.72294265
000220 2f c1 92 40 63 80 e9 40 af a4 01 34 c5 f9 a7 3b
       4.586082 7.296922 1.2073973e-07 0.0051262104
000230 00 00 00 00 00 00 00 00 37 f1 2e 40 00 00 00 00
       0.0 0.0 2.7334726 0.0
000240 00 00 00 00 13 5c c2 41 b2 54 c1 41 00 00 00 00
       0.0 24.294958 24.166355 0.0
000250 62 05 ee 3d 80 c1 23 41 00 00 00 00 bf 95 35 3e
       0.116221204 10.234741 0.0 0.17732905
000260 91 bb 09 42 c0 e6 cb 3f 00 00 00 00 2a 2c 7e 41
       34.43317 1.5929794 0.0 15.885782
000270 00 00 00 00 8f 99 88 40 0f 77 70 40 82 f6 ba 3e
       0.0 4.268745 3.7572668 0.36516196
000280 1a d5 67 3f 00 00 00 00 78 65 42 3e 7a 2c 33 3d
       0.9055954 0.0 0.1898402 0.043743588
000290 1d 8f 7a 42 08 c8 59 40 f4 f5 4a 41 a8 26 ab 3b
       62.63976 3.402834 12.685047 0.005223114
0002a0 46 c2 1b 41 00 00 00 00 a7 e6 82 41 00 00 00 00
       9.73493 0.0 16.362623 0.0
0002b0 1d 17 88 41 46 0a b1 40 83 b7 aa 3e 7b 13 e1 41
       17.011286 5.532504 0.33343133 28.134512
0002c0 00 00 00 00 00 00 00 00 32 8c 40 41 6e eb 1c 32
       0.0 0.0 12.034227 9.133926e-09
0002d0 00 00 00 00 15 5e 92 3e 81 e4 07 42 5c 5d 0d 42
       0.0 0.28587404 33.97315 35.34117
0002e0 00 00 00 00 5a 4b fa 40 99 82 7d 41 a4 4b 70 3d
       0.0 7.821698 15.844384 0.058665887
0002f0 c4 8a 49 40 4f 54 1e 42 71 b6 46 42 19 2f 86 41
       3.1490946 39.582333 49.678165 16.772997
000300 8b 09 32 3f 9a 5b 57 40 00 00 00 00 05 66 6d 3a
       0.6954581 3.364966 0.0 0.00090560346
000310 b6 c6 e3 40 00 00 00 00 00 00 00 00 db 9a f4 3e
       7.1180067 0.0 0.0 0.47774395
000320 41 f7 d0 40 86 ab 1c 41 80 a3 71 33 9e 58 bd 3a
       6.5301824 9.791876 5.6260888e-08 0.0014445966
000330 00 00 00 00 00 00 00 00 ca 45 2a 40 00 00 00 00
       0.0 0.0 2.6605096 0.0
000340 00 00 00 00 17 cc 5b 42 18 bb b9 41 00 00 00 00
       0.0 54.949306 23.216354 0.0
000350 b7 f3 85 3d 5f 41 1a 41 00 00 00 00 c2 cf ce 3d
       0.065406255 9.64096 0.0 0.100982204
000360 43 19 66 42 5a 6e 95 3f 00 00 00 00 29 21 f4 41
       57.52467 1.1674302 0.0 30.516191
000370 00 00 00 00 9d 86 89 40 80 a1 61 40 a6 7b 92 3e
       0.0 4.2976823 3.5254822 0.2860996
000380 56 25 53 3f 00 00 00 00 5b c7 f7 3d 7c 46 ab 3d
       0.82478845 0.0 0.12098571 0.08363053
000390 43 b1 ab 42 71 3b 49 40 76 d0 3f 41 2c 62 4d 3b
       85.846214 3.144253 11.988394 0.0031339033
0003a0 95 7b 38 41 00 00 00 00 9c c4 94 41 00 00 00 00
       11.530171 0.0 18.596 0.0
0003b0 eb 44 93 41 29 81 9e 40 4d b4 93 3e 52 48 79 42
       18.408651 4.9532666 0.28848496 62.320625
0003c0 00 00 00 00 00 00 00 00 a7 aa 36 41 a1 64 99 33
       0.0 0.0 11.416663 7.142922e-08
0003d0 00 00 00 00 1a fe 74 3e 00 a1 2d 42 f3 f8 b5 42
       0.0 0.23925057 43.407227 90.98623
0003e0 00 00 00 00 6d 50 45 41 76 b5 75 41 d0 a8 c3 3e
       0.0 12.332135 15.356802 0.3821473
0003f0 a4 43 35 40 bd ce 1c 42 7e b9 53 42 41 5d 82 41
       2.8322535 39.201893 52.931145 16.295534

exp_avg f4 [5]
000000 57 76 de b9 b1 b8 ff ba 99 cb 8b 3a 32 86 c0 3c
       -0.0004243131 -0.0019509998 0.0010665535 0.02350149
000010 25 a4 a8 be
       -0.32937732

exp_avg_sq f4 [5]
000000 56 8a 6c 3c 7c de b4 3b 2d 60 7f 3c 02 1a cf 3c
       0.014437279 0.0055196863 0.015586895 0.025280956
000010 32 e4 ab 3f
       1.3429015
